…
a minuciosa e demorada inspeção dos dados (tentei simular mais ou menos o que eu faria numa modelagem onde eu que teria que construir as features na mão). Acurácia de 82%, nada mal. Mas a hipótese e parâmetros foram distintos do verdadeiro gerador dos dados. Vamos usar redes neurais para resolver o problema de não linearidade. 4.5.8.4 Deep Learning para \\(Y_2\\) (com keras) Hipótese para \\(E[Y_2|x]\\). Model _____________________________________________________________ Layer (type) Output Shape Param # ============================================================= modelo_keras_2 (InputLayer) (None, 1) 0 _____________________________________________________________ camada_um (Dense) (None, 1) 2 _____________________________________________________________ tanh_de_dentro (Activation) (None, 1) 0 _____________________________________________________________ camada_dois (Dense) (None, 1) 2 _____________________________________________________________ link_logistic (Activation) (None, 1) 0 ============================================================= Total params: 4.0 Trainable params: 4.0 Non-trainable params: 0.0 _____________________________________________________________ Quatro parâmetros ‘treináveis’, é isso aí! Dois parâmetros de dentro do tanh e os dois parâmetros de fora. Precisamos que o keras nos devolva -1, 2, -1 e 2 do jeito que geramos os dados. Função de custo Precis
…
